model.pth (torch, 144000 bytes, 7 tensors)

category_embedding.weight f4 [50, 50]
-0.14392768 -0.24970312 0.2878073 0.30606815 -1.4683514 0.32796165 -1.4860241 -0.18670726
-0.021473307 1.539854 -0.13509737 -1.5346268 -0.15856871 -0.060987573 0.41865796 0.99768496
-0.8335307 -2.3695393 -0.7331861 0.07131847 -0.53723705 -0.19281672 0.041241735 -0.22568242
0.041629374 -1.5593749 0.6596988 -1.6736444 -0.5725457 0.003250918 0.51396483 0.89972746
-0.86113423 0.030039588 2.2035236 0.03462613 -0.58748424 0.019516585 -0.6953689 -1.065174
-0.48368147 -0.12640809 0.53773916 -0.30749133 1.2795124 -0.8070015 1.0401285 -1.0055058
0.18192278 0.100532606 1.1016482 0.16510034 -0.19173333 -0.5402633 -1.0114354 0.48384863
-1.3843027 -1.100322 0.3695375 0.7240519 1.0626798 -1.041136 -0.46094057 1.2893203
-0.50281876 -0.2539112 0.99461687 -1.5411454 0.21112232 -0.7321952 -1.0057396 -1.8282396
0.20378599 0.28070217 1.9398155 1.5022897 -0.18366782 -0.02004279 0.5520789 0.3103964
-1.7354146 -0.92571586 0.8667306 -0.476006 -1.1665025 0.23490953 0.33732498 -1.9903536
-2.9606495 0.49959797 -0.32907793 0.18162656 0.32029 -0.6042172 -0.72664976 -0.5857929
-0.8803214 0.47491154 0.01800117 -0.43605894 -1.624515 -1.2669924 -1.0615622 -0.23315382
-1.772234 1.0489783 0.95688707 0.777984 0.1386712 1.4190398 0.25759 0.25872505
1.0967642 1.1627716 0.24122669 0.3166304 -0.40310904 0.005636291 -1.4249107 0.71446574
-0.14480895 1.9501754 0.5498949 0.30256662 0.49145728 0.8337638 -0.62647176 -1.2749256
-0.40944293 0.22005863 1.8865905 -1.2119248 0.79953504 -0.39094484 -0.4642748 -1.8736066
0.23771618 0.27985454 -0.7448543 0.28642637 -0.9732277 -0.75982386 -0.54010457 1.7943485
0.6227363 0.20684478 -1.4324764 0.98695064 -0.9250181 0.7351565 -0.72455615 -0.3255196
-0.2572352 0.7863863 -0.272468 -0.9079782 0.09453503 -2.2160363 -0.6697573 0.16879639
0.7891018 -0.28202927 0.7468473 0.59406704 -0.5952994 -0.43423715 -1.1466365 -0.61157066
0.90073436 0.34955263 0.046650957 -1.224523 -0.32838 1.0337455 1.8984251 -1.1900283
2.4892552 -0.19652352 -0.011319627 -0.6405635 0.5865515 -2.0267859 0.8125754 -0.5515551
0.4433909 -0.03092882 0.8031671 2.4116912 1.6197861 -1.4500186 0.84094685 -0.888213
-0.5398409 1.9567658 -0.582348 -0.8128398 0.13248307 0.03250879 -0.44739404 0.07496552
-0.52283776 -2.35466 -0.8844769 1.057739 0.12899448 1.0405867 -0.23371719 -1.8994862
0.374494 -0.12086703 -1.2877504 1.2782228 -2.0797405 0.4539586 0.07102898 0.59008056
0.049929034 0.54909813 -1.6209873 -0.15744768 0.5011452 0.30695823 0.9066231 1.2628227
0.21693164 1.564395 1.4651154 0.48647308 0.0267211 0.90056926 0.26111338 -0.22559032
0.12816606 0.505837 -0.7946161 -2.2087822 -1.3463689 -0.75332206 0.4879117 0.26912272
-1.7965238 -0.9843608 -0.5140893 -0.5111106 -1.0754026 0.082615785 -1.4969937 -0.63890004
-0.50241625 0.47201854 -0.37961918 -0.07519553 -0.85360676 -0.3403358 1.4979428 0.5094226
00000000: c761 13be 2db2 7fbe 7a5b 933e f7b4 9c3e
00000010: f0f2 bbbf 97ea a73e 0a36 bebf 3030 3fbe
00000020: cae8 afbc f019 c53f f756 0abe a76e c4bf
00000030: d65f 22be 1bce 79bd 565a d63e 4868 7f3f
00000040: 4562 55bf 88a6 17c0 16b2 3bbf 6b0f 923d
00000050: 5e88 09bf bf71 45be 18ed 283d 4b19 67be
00000060: 9083 2a3d 9999 c7bf 05e2 283f fb39 d6bf
00000070: 5b92 12bf 5a0d 553b 3393 033f 8a54 663f
00000080: 4b73 5cbf 9515 f63c 8806 0d40 21d4 0d3d
00000090: 5e65 16bf 3fe1 9f3c b203 32bf 9f57 88bf
000000a0: 19a5 f7be 1f71 01be 46a9 093f 816f 9dbe
000000b0: 10c7 a33f a697 4ebf ee22 853f 6ab4 80bf
000000c0: f749 3a3e 0ae4 cd3d cf02 8d3f 1010 293e
000000d0: be55 44be b24e 0abf b776 81bf 02bb f73e
000000e0: d530 b1bf 5ad7 8cbf 0534 bd3e 775b 393f
000000f0: e405 883f f243 85bf 6700 ecbe 7308 a53f
00000100: bbb8 00bf a600 82be 369f 7e3f 4144 c5bf
00000110: 7330 583e 2571 3bbf 13bc 80bf c103 eabf
00000120: 46ad 503e 32b8 8f3e e04b f83f 074b c03f
00000130: 6b13 3cbe c730 a4bc 0b55 0d3f 47ec 9e3e
00000140: 1122 debf b7fb 6cbf 0ee2 5d3f 0fb7 f3be
00000150: f44f 95bf 208c 703e dcb5 ac3e e8c3 febf
00000160: 487b 3dc0 4ecb ff3e e77c a8be 50fc 393e
00000170: 0dfd a33e faad 1abf b805 3abf 86f6 15bf
00000180: be5c 61bf 9b27 f33e 3177 933c 1e43 dfbe
00000190: 1cf0 cfbf cf2c a2bf 45e1 87bf e0bf 6ebe
000001a0: 90d8 e2bf ec44 863f 8df6 743f f629 473f
000001b0: d3ff 0d3e 19a3 b53f d6e2 833e 9c77 843e
000001c0: c562 8c3f b3d5 943f 2104 773e 611d a23e
000001d0: 4f64 cebe a3b0 b83b 7963 b6bf 3ae7 363f
000001e0: cc48 14be 599f f93f eac5 0c3f 03ea 9a3e
000001f0: 4aa0 fb3e 8b71 553f 7460 20bf c330 a3bf
00000200: 81a2 d1be 0d57 613e cc7b f13f 5a20 9bbf
00000210: 54ae 4c3f ec29 c8be 6db5 edbe 57d2 efbf
00000220: df6b 733e 1849 8f3e c5ae 3ebf 7aa6 923e
00000230: 7325 79bf d183 42bf 4b44 0abf 36ad e53f
00000240: a56b 1f3f 1ecf 533e 635b b7bf cca8 7c3f
00000250: fccd 6cbf 3733 3c3f 837c 39bf 81aa a6be
00000260: 55b4 83be 9d50 493f ed80 8bbe 4271 68bf
00000270: 959b c13d 8ad3 0dc0 3775 2bbf f6d8 2c3e
00000280: 9302 4a3f 2466 90be 6231 3f3f c714 183f
00000290: 8b65 18bf 5554 debe fcc4 92bf e58f 1cbf
000002a0: 8796 663f 90f8 b23e 1315 3f3d 2bbd 9cbf
000002b0: 6c21 a8be c651 843f 98ff f23f d952 98bf
000002c0: f54f 1f40 763d 49be f575 39bc f8fb 23bf
000002d0: 3d28 163f dcb6 01c0 f104 503f b732 0dbf
000002e0: 2204 e33e 705e fdbc 5c9c 4d3f 2659 1a40
000002f0: 2755 cf3f 369a b9bf 4b48 573f ed61 63bf
00000300: 0333 0abf 4d77 fa3f c214 15bf 4516 50bf
00000310: a4a9 073e f027 053d d510 e5be 8687 993d
00000320: b2d8 05bf c0b2 16c0 146d 62bf fe63 873f
00000330: 2117 043e f231 853f 8f53 6fbe 5d22 f3bf
00000340: adbd bf3e 2289 f7bd 01d5 a4bf ce9c a33f
00000350: 781a 05c0 436d e83e a477 913d 850f 173f
00000360: 6382 4c3d b291 0c3f 837c cfbf f739 21be
00000370: 0d4b 003f a129 9d3e 7418 683f 2da4 a13f
00000380: 5423 5e3e 183e c83f e788 bb3f 0013 f93e
00000390: 35e6 da3c b58b 663f a7b0 853e 2601 67be
000003a0: f73d 033e 897e 013f f66b 4bbf b05c 0dc0
000003b0: d155 acbf b7d9 40bf 90cf f93e 74ca 893e
000003c0: 7ef4 e5bf 12ff 7bbf 5b9b 03bf 25d8 02bf
000003d0: cba6 89bf 7732 a93d 7d9d bfbf f48e 23bf
000003e0: 5a9e 00bf 6aac f13e 725d c2be 1d00 9abd
000003f0: f985 5abf 7e40 aebe 97bc bf3f 8569 023f

lstm.weight_ih_l0 f4 [256, 50]
0.24475093 -0.17908983 0.10348641 0.16747949 0.042312685 -0.27143428 0.3828651 0.1549474
-0.062249705 -0.09002664 -0.0056734122 0.40804073 0.12860106 -0.01471313 -0.048622686 -0.42296004
-0.084225215 0.44949773 0.05865305 -0.03181675 -0.0060585816 0.072683655 -0.08838431 0.25175723
0.16337053 0.2749089 0.06351674 0.28074777 0.22794713 -0.17166038 -0.23764683 -0.18457654
0.28173268 -0.043814573 -0.3530053 -0.0867802 0.1580897 0.22838525 0.058977608 -0.08210302
0.0907505 0.2657587 -0.18766686 0.2518693 -0.3704107 0.30757242 -0.2885379 0.33157495
0.104114585 0.15577933 -0.25263754 -0.07988638 0.3911744 0.03798719 -0.40150028 0.39713505
-0.15399258 0.0044287583 0.071780354 0.17538746 -0.5242552 -0.19792539 -0.27767763 0.19014429
-0.06250689 0.16175237 -0.38685775 0.08480827 0.029859388 0.18919076 -0.05722031 0.21922351
-0.13938013 0.18564647 0.1785063 -0.08012837 -0.023494327 -0.5655675 -0.052978855 -0.059934612
0.08889543 0.35178104 0.16004717 0.14213713 0.4495366 -0.4135466 -0.20071119 -0.1909467
0.30803713 -0.31237498 -0.18323801 0.252396 0.33756828 0.2859987 0.1778158 0.05215787
0.13245869 -0.13825943 0.08165472 -0.12673612 -0.15161209 0.046911567 0.07732969 0.2534502
0.21183635 -0.19464584 -0.11681162 -0.41763976 0.0779618 0.31628716 0.17155273 -0.05446378
0.08330722 -0.39935797 -0.5853981 0.2777589 0.54435486 -0.08580853 -0.2822362 -0.39966965
-0.33409423 -0.21236512 -0.36740217 -0.43374166 -0.32623363 -0.034883704 0.22038718 0.0865507
-0.08917707 0.013911374 0.12177629 -0.08089366 0.05581605 -0.2900625 -0.09193729 0.17299604
0.34400734 0.1893463 -0.2044886 0.21802413 0.32160032 0.19358289 -0.006367187 -0.27265692
-0.44219393 0.042552415 -0.04884314 0.09591143 -0.14252853 0.3413483 0.0045409226 -0.34655
-0.3280783 0.115618825 -0.37681076 -0.01112523 -0.012379066 0.07396122 0.20674503 -0.059067532
-0.27603087 -0.014569494 0.3304 -0.5927412 0.5069363 0.30128658 0.23104507 -0.123340406
-0.4269534 0.21931994 -0.05157735 0.050247673 0.2862411 0.25872263 -0.21327277 -0.1247468
0.030300278 -0.071828574 0.15154526 0.062336132 0.3896625 0.119140536 -0.40246215 -0.28820372
0.30366117 -0.36292383 0.13309644 0.32595402 -0.18185292 -0.1436551 -0.041182235 -0.2835722
-0.3799498 -0.11058958 -0.11552349 0.07869814 0.31428766 0.017758917 0.35627973 0.305613
-0.35411617 -0.37256438 -0.3993508 0.00081487367 -0.09343134 0.47534212 -0.019426608 -0.014056082
-0.13551629 0.056002803 -0.09480014 -0.27688253 0.1291143 0.23628363 0.535044 -0.2820991
0.028113078 0.033376966 0.00013001895 0.1897351 -0.32896775 0.09609876 -0.40238845 0.11313907
-0.0014823482 -0.08834538 -0.07816398 -0.019558605 0.22089893 0.047620628 0.37779957 0.47347283
0.19646314 -0.059141573 -0.05269587 -0.16608576 0.005589939 0.21991694 -0.30546546 -0.18380482
-0.061787922 0.19232233 -0.076663084 0.18049532 0.049327508 -0.4218121 0.14480884 -0.42830232
0.08389935 0.16896924 0.029254533 -0.19946265 -0.09984151 0.008593216 -0.005866385 0.0321695
00000000: fd9f 7a3e 5363 37be aff0 d33d be7f 2b3e
00000010: 1150 2d3d 6ff9 8abe e506 c43e 88aa 1e3e
00000020: 8cf9 7ebd e35f b8bd 08e8 b9bb b7ea d03e
00000030: ffaf 033e 570f 71bc 9528 47bd 388e d8be
00000040: 457e acbd 9124 e63e 2e3e 703d 4852 02bd
00000050: 1187 c6bb 2bdb 943d d502 b5bd 53e6 803e
00000060: 9b4a 273e dcc0 8c3e 1115 823d 2cbe 8f3e
00000070: f96a 693e bdc7 2fbe b159 73be a201 3dbe
00000080: 443f 903e e976 33bd 1cbd b4be d1b9 b1bd
00000090: 44e2 213e d3dd 693e 8192 713d a125 a8bd
000000a0: 66db b93d 8611 883e be2b 40be 03f5 803e
000000b0: 79a6 bdbe 227a 9d3e 3dbb 93be 31c4 a93e
000000c0: 073a d53d 9e84 1f3e b559 81be 789b a3bd
000000d0: 0348 c83e 7598 1b3d 7291 cdbe 4955 cb3e
000000e0: 3bb0 1dbe 1e1f 913b 9401 933d c598 333e
000000f0: 9735 06bf f4ac 4abe c32b 8ebe 2fb5 423e
00000100: 9d03 80bd 6aa2 253e 3812 c6be f5af ad3d
00000110: ad9b f43c 39bb 413e d85f 6abd 217c 603e
00000120: aab9 0ebe 1c1a 3e3e 5bca 363e 581a a4bd
00000130: 2d77 c0bc 08c9 10bf 5b00 59bd ff7d 75bd
00000140: cf0e b63d a51c b43e 68e3 233e 658c 113e
00000150: a929 e63e 61bc d3be 3c87 4dbe 8887 43be
00000160: 0bb7 9d3e 9def 9fbe bfa2 3bbe 0c3a 813e
00000170: c0d5 ac3e 6c6e 923e 5815 363e 7ea3 553d
00000180: 40a3 073e e193 0dbe 973a a73d 1dc7 01be
00000190: 3340 1bbe 5826 403d 075f 9e3d 3ac4 813e
000001a0: a1eb 583e 3d51 47be ee3a efbd e1d4 d5be
000001b0: 70aa 9f3d 64f0 a13e 85ab 2f3e 6a15 5fbd
000001c0: fa9c aa3d a678 ccbe a6dc 15bf 6a36 8e3e
000001d0: d75a 0b3f 62bc afbd 4381 90be 80a1 ccbe
000001e0: 660e abbe 3e76 59be 231c bcbe 6313 debe
000001f0: 1808 a7be 37e2 0ebd 2dad 613e 7e41 b13d
00000200: 78a2 b6bd 88ec 633c d965 f93d 93ab a5bd
00000210: 5f9f 643d 1283 94be 9e49 bcbd e025 313e
00000220: bb21 b03e ffe3 413e 7665 51be b841 5f3e
00000230: cca8 a43e 983a 463e d6a3 d0bb b099 8bbe
00000240: 3e67 e2be 714b 2e3d bf0f 48bd 366d c43d
00000250: 00f3 11be 34c5 ae3e 05cc 943b 006f b1be
00000260: e1f9 a7be 90c9 ec3d 57ed c0be 9946 36bc
00000270: 91d1 4abc fb78 973d f8b4 533e ccf0 71bd
00000280: eb53 8dbe e3b4 6ebc 302a a93e e3bd 17bf
00000290: 94c6 013f 3c42 9a3e 1497 6c3e e599 fcbd
000002a0: a399 dabe 6895 603e c542 53bd 81d0 4d3d
000002b0: 328e 923e 4b77 843e 2d64 5abe 407b ffbd
000002c0: 4a38 f83c dc1a 93bd ae2e 1b3e 2c54 7f3d
000002d0: d881 c73e f4ff f33d 850f cebe 708f 93be
000002e0: 7a79 9b3e 27d1 b9be 6f4a 083e 72e3 a63e
000002f0: a737 3abe 531a 13be b4ae 28bd 6030 91be
00000300: c888 c2be ca7c e2bd 9497 ecbd 7e2c a13d
00000310: 50ea a03e 267b 913c 4c6a b63e 4f79 9c3e
00000320: b74e b5be c2c0 bebe b577 ccbe 3f9d 553a
00000330: ee58 bfbd 0b60 f33e 8d24 9fbc 7b4b 66bc
00000340: c8c4 0abe 3263 653d 9326 c2bd 8cc3 8dbe
00000350: 8a36 043e 56f4 713e a5f8 083f 4b6f 90be
00000360: 664d e63c 49b6 083d b255 0839 eb49 423e
00000370: 766e a8be 6dcf c43d dc05 cebe 75b5 e73d
00000380: 5a4b c2ba 6cee b4bd 7014 a0bd 5e39 a0bc
00000390: 5433 623e d90d 433d f26e c13e 086b f23e
000003a0: a22d 493e 6f3e 72bd a0d7 57bd 6312 2abe
000003b0: cf2b b73b e831 613e f865 9cbe 5537 3cbe
000003c0: 5515 7dbd 25f0 443e 8901 9dbd c4d3 383e
000003d0: a40b 4a3d c1f7 d7be c548 143e 714a dbbe
000003e0: 6cd3 ab3d 4606 2d3e 34a7 ef3c f03f 4cbe
000003f0: b579 ccbd 8fca 0c3c ce3a c0bb 2ac4 033d

lstm.weight_hh_l0 f4 [256, 64]
-1.1072458 -0.098119065 -0.25364092 -0.43444416 -0.16943538 -0.18726958 -0.21244113 -0.39272597
0.31546688 -0.16593619 0.10353352 0.018790642 0.12296828 -0.22539952 0.1304806 0.059363957
0.016054263 -0.62866986 -0.3641929 -0.0711838 0.092996165 0.3372717 0.17029808 0.06267557
-0.067562096 0.026149772 0.20810662 -0.12588757 0.07915775 0.12987392 0.1635083 0.024702538
0.108389206 0.8059756 -0.27608645 0.09118773 0.3105278 -0.20876175 0.10879013 -0.13921869
0.11539984 -0.49285343 -0.057356887 -0.25155085 0.3368953 -0.18831517 -0.4778013 -0.47225815
-0.30772012 -0.12044071 0.18681946 -0.0034100772 0.34579393 0.15976271 0.47554147 0.53294176
-0.2317969 0.017283224 -0.29592818 0.002953325 0.072534055 0.07768982 -0.2226109 0.33955067
-0.17616327 -0.5225805 0.17872655 -0.20432505 -0.12731361 0.057753313 -0.21373968 -0.0068591842
-0.73553 0.7105728 0.05141692 -0.5040622 0.12447985 0.3893031 0.14618838 -0.11742469
-0.35042322 -0.27057064 -0.39882287 0.45603317 -0.07335318 -0.17673686 -0.13357604 -0.16835614
0.042961005 -0.58170193 0.07715745 -0.3950377 -0.038017716 0.34394944 -0.1565094 0.24260056
-0.8128577 -0.15642732 0.029413229 -0.17805314 -0.36729425 0.050575122 -0.16622749 -0.49503332
-0.19274582 0.17228843 -0.22415921 -0.33926183 0.8344022 0.387819 0.17853788 -0.17163411
0.053696927 0.5501334 0.2678153 -0.64361733 0.22153439 -0.015106241 0.10860269 -0.4278953
-0.15340583 0.56528544 0.046360224 0.027835777 -0.00367578 -0.24942595 0.44083723 -0.114532016
-0.344455 0.41660458 0.11883237 0.20170973 -0.20479709 0.16835026 -0.29453546 -0.19593048
-0.10319177 -0.46145236 -0.30345443 -0.21036114 -0.09210451 -0.014154661 0.17849441 0.5896419
0.52474487 -0.45520368 0.21187401 -0.64393634 0.17080368 0.1531489 0.74316144 -0.47420102
0.22206745 0.20932542 -0.028639598 -0.560866 -0.11567006 0.034451492 0.15948917 -0.10461223
0.09885566 -0.37121132 -0.41910496 0.2017887 -0.8642233 -0.3911537 -0.08087047 -0.23253527
0.5181107 -0.1975229 0.056784827 -0.3580144 0.63190734 0.3135702 0.09249011 -0.34221232
-0.122719646 0.15790662 0.1443679 -0.2281603 0.52914834 0.41805944 0.4760507 0.416886
-0.070968404 -0.08596084 -0.113018915 -0.05223786 -0.07924453 -0.0026149326 0.08120612 0.15985909
0.21937999 0.2713801 0.010848166 -0.65571755 -0.32056433 0.3855051 -0.12986258 0.016967786
-0.25612137 0.18556364 -0.3443429 -0.17242402 -0.452435 -0.28014964 -0.1635908 -0.1564677
0.1076292 -0.4846496 0.154503 0.12172685 0.11484832 0.12987562 0.6060922 -0.008827233
0.21651226 -0.15010858 -0.11601935 -0.27484116 -0.20750192 -0.06688 0.07097635 0.10631069
0.33826327 0.3433335 0.3472887 0.2919745 -0.022626875 -0.21943508 -0.34402248 -0.50196195
-0.010577327 -0.51656395 -0.4479061 -0.037785158 -0.017713416 -0.14700466 -0.12391899 0.038235143
0.0999015 0.22809875 0.09477934 -0.5070925 -0.4193015 0.21401682 0.24384505 0.121836476
0.0846719 -0.05904909 -0.006144875 0.14033306 0.29867128 0.13171378 0.017303113 -0.43432847
00000000: 3bba 8dbf a6f2 c8bd 39dd 81be 776f debe
00000010: 7880 2dbe 99c3 3fbe 2b8a 59be 6113 c9be
00000020: e084 a13e 2deb 29be 6209 d43d d5ee 993c
00000030: cbd6 fb3d 22cf 66be b59c 053e 9f27 733d
00000040: 3b84 833c 82f0 20bf 7e77 babe d0c8 91bd
00000050: c674 be3d e0ae ac3e 9f62 2e3e 0d5c 803d
00000060: ff5d 8abd 0c38 d63c e719 553e ace8 00be
00000070: 751d a23d abfd 043e b86e 273e fa5c ca3c
00000080: 29fb dd3d 6b54 4e3f 345b 8dbe a2c0 ba3d
00000090: 80fd 9e3e a4c5 55be 5ccd de3d 588f 0ebe
000000a0: c056 ec3d 4957 fcbe 0eef 6abd 46cb 80be
000000b0: 8a7d ac3e b1d5 40be 5fa2 f4be d2cb f1be
000000c0: 7e8d 9dbe 9ea9 f6bd 9a4d 3f3e 9a7b 5fbb
000000d0: e70b b13e d698 233e 2c7a f33e df6e 083f
000000e0: 2b5c 6dbe 8c95 8d3c e683 97be 928c 413b
000000f0: bc8c 943d d71b 9f3d 1df4 63be 96d9 ad3e
00000100: 2564 34be d6c7 05bf 1804 373e 963a 51be
00000110: 805e 02be bd8e 6c3d 93de 5abe 02c3 e0bb
00000120: b24b 3cbf 19e8 353f 8c9a 523d 380a 01bf
00000130: 4bef fe3d bc52 c73e 68b2 153e 5b7c f0bd
00000140: ac6a b3be 3c88 8abe 8332 ccbe 2e7d e93e
00000150: 313a 96bd 82fa 34be 28c8 08be 8d65 2cbe
00000160: e1f7 2f3d 6bea 14bf ba04 9e3d 6242 cabe
00000170: 77b8 1bbd 241a b03e 0044 20be 486c 783e
00000180: 7117 50bf 7c2e 20be 03f4 f03c 9053 36be
00000190: fe0d bcbe dc27 4f3d 8a37 2abe 0275 fdbe
000001a0: 295f 45be 616c 303e fe89 65be bab3 adbe
000001b0: 629b 553f 3690 c63e a2d2 363e dac0 2fbe
000001c0: 4ff1 5b3d 8bd5 0c3f 161f 893e 1bc4 24bf
000001d0: e9d9 623e 2b80 77bc 166b de3d 1815 dbbe
000001e0: 6b16 1dbe 8cb6 103f 38e4 3d3d db07 e43c
000001f0: 5be5 70bb 8469 7fbe 6bb5 e13e c38f eabd
00000200: 685c b0be 324d d53e 635e f33d ff8c 4e3e
00000210: 54b6 51be 0364 2c3e 5acd 96be 00a2 48be
00000220: 3556 d3bd 7c43 ecbe 615e 9bbe e968 57be
00000230: 4aa1 bcbd f4e8 67bc 3dc7 363e c6f2 163f
00000240: ae55 063f 7510 e9be 80f5 583e 03d9 24bf
00000250: 29e7 2e3e 11d3 1c3e d43f 3e3f 7aca f2be
00000260: a665 633e 6759 563e 979d eabc ea94 0fbf
00000270: 6de4 ecbd 021d 0d3d 2151 233e f03e d6bd
00000280: d674 ca3d 690f bebe ed94 d6be b2a1 4e3e
00000290: bd3d 5dbf 4c45 c8be 6b9f a5bd ba1d 6ebe
000002a0: e7a2 043f 7143 4abe 3597 683d aa4d b7be
000002b0: aec4 213f 468c a03e 746b bd3d 7436 afbe
000002c0: 7054 fbbd 46b2 213e 2ed5 133e dba2 69be
000002d0: 4476 073f e30b d63e ebbc f33e 1572 d53e
000002e0: e257 91bd 3d0c b0bd 7676 e7bd 5ef7 55bd
000002f0: f54a a2bd 4a5f 2bbb 654f a63d 1ab2 233e
00000300: 26a5 603e 55f2 8a3e 82bc 313c 1bdd 27bf
00000310: 0221 a4be ed60 c53e b2fa 04be 0700 8b3c
00000320: 5722 83be 6504 3e3e b64d b0be ec8f 30be
00000330: 8fa5 e7be c66f 8fbe 5984 27be 1239 20be
00000340: b36c dc3d fe23 f8be 0936 1e3e ed4b f93d
00000350: 9935 eb3d 1dfe 043e dc28 1b3f 19a0 10bc
00000360: 64b5 5d3e 10b6 19be 8e9b edbd fbb7 8cbe
00000370: 627b 54be 62f8 88bd 0c5c 913d 6bb9 d93d
00000380: d830 ad3e 69c9 af3e d3cf b13e af7d 953e
00000390: ff5b b9bc 97b3 60be b723 b0be 9480 00bf
000003a0: 864c 2dbc 893d 04bf f353 e5be 9cc4 1abd
000003b0: ba1b 91bc 6488 16be 3dc9 fdbd 749c 1c3d
000003c0: 2899 cc3d b892 693e ac1b c23d d0d0 01bf
000003d0: b0ae d6be 3a27 5b3e 84b2 793e 6785 f93d
000003e0: 7668 ad3d 75dd 71bd f35a c9bb 78b3 0f3e
000003f0: 71eb 983e fadf 063e 42bf 8d3c 4d60 debe

lstm.bias_ih_l0 f4 [256]
-0.052263338 0.047268137 -0.27476084 -0.09053592 0.027453626 -0.121162586 -0.23290826 -0.30434954
-0.19062263 -0.14190339 -0.30156463 -0.62753093 -0.29197168 -0.22314385 -0.5892667 -0.18726438
-0.25254166 -0.0063947225 -0.22282697 0.03498536 -0.19408725 -0.29572225 -0.43088657 -0.17011552
-0.2342248 -0.17171952 -0.18771058 -0.2601225 0.15659307 0.003356116 -0.47987852 -0.41067824
-0.43107426 -0.3666705 -0.24077232 0.15039694 -0.19023669 -0.34150487 -0.227777 -0.10564227
-0.37826535 -0.40842703 0.070120014 0.025543397 -0.11186345 -0.4513281 -0.30761555 -0.46292448
-0.10579829 -0.25123087 -0.3397157 -0.087228455 -0.15346594 -0.13159111 -0.3768951 -0.09439737
-0.74430674 -0.01994376 -0.1414041 -0.2444974 -0.37361488 -0.3834413 -0.2880896 -0.11168389
-0.04715972 -0.44238973 0.15569456 -0.05657428 -0.113277785 -0.055263303 0.39952967 0.29869738
0.09027554 -0.050602842 0.21265237 0.2485105 0.21030925 0.06568207 0.6894149 -0.012069174
0.25668493 0.50527793 -0.17544204 0.090921484 0.52637416 0.23417614 0.29173708 0.1284577
0.6036647 0.2679843 0.026150698 0.3400715 0.011772541 0.16758743 0.44916713 0.57648146
0.69837207 0.2817657 0.23445615 0.0002915913 0.04765425 0.40131664 -0.004764611 0.21608242
0.5790981 0.13817385 0.5172211 0.9573308 0.18064588 -0.31659135 -0.18136819 0.13311094
0.10810874 0.60158724 0.16222337 0.12276608 0.12867492 0.21474703 0.5363921 0.12301939
0.66097945 0.105932094 -0.09992609 0.32104683 0.17427579 0.14647993 0.14170457 0.1862307
0.17579937 0.19007596 0.3060408 0.24971281 -0.12998134 0.040203325 0.16883136 0.003602413
-0.16642925 0.06680235 -0.055082105 0.15761772 0.1809894 0.20391886 -0.18438882 0.050828427
-0.20338309 0.35342038 -0.097627364 -0.09538528 -0.15550458 -0.3140102 -0.03045274 0.3316995
0.16516683 0.11519622 -0.036682054 0.14513803 -0.053575642 -0.036166362 0.017874086 -0.07924467
-0.07143988 -0.042560697 0.20840004 -0.318363 0.20622635 0.038502824 -0.1745031 0.3709805
-0.3181392 0.1266571 0.2807275 0.48630342 0.050557055 0.104204796 0.2123115 -0.002951056
-0.027154865 0.23646912 -0.3665393 0.060475945 -0.07987265 -0.20150726 -0.14945114 -0.43745843
0.06684766 -0.21299207 0.1200907 -0.0036097206 0.16769196 0.014082791 0.107226916 -0.4669275
0.57941395 -0.18230575 0.09709017 -0.06496827 -0.10303927 0.139904 0.12838139 0.087355316
0.47096476 -0.40398207 0.06937047 -0.1788803 0.01632528 -0.13491122 0.15916388 -0.03761668
0.04643864 0.05787514 -0.09556462 -0.35154083 0.09200781 -0.06948027 0.08519847 0.039761245
0.0673049 -0.13996121 0.29784468 -0.050187826 0.34800595 0.24042359 -0.004467219 -0.029105512
-0.13209815 -0.22878236 -0.08720799 0.4190175 0.13385089 -0.1436474 -0.081003755 0.22992906
-0.07192094 0.26852503 -0.1160577 0.35551816 0.16692127 -0.13048474 0.078831874 0.006845549
-0.05856498 -0.34829932 -0.0075831716 -0.34754613 0.2572402 0.61756694 0.21573234 -0.14914027
0.04030812 -0.06363758 -0.26855513 0.01617835 -0.08080027 0.14903246 0.1805127 -0.2823595
00000000: 1512 56bd 3c9c 413d 74ad 8cbe e56a b9bd
00000010: 6de6 e03c 1724 f8bd 817f 6ebe b4d3 9bbe
00000020: 9432 43be 1f4f 11be ae66 9abe dea5 20bf
00000030: 507d 95be d27f 64be 2fda 16bf 3cc2 3fbe
00000040: 244d 81be d28a d1bb c12c 64be cf4c 0f3d
00000050: cfbe 46be e868 97be 2a9d dcbe c332 2ebe
00000060: a0d8 6fbe 3ed7 2fbe 3437 40be c72e 85be
00000070: ef59 203e 48f2 5b3b a3b2 f5be 6b44 d2be
00000080: c4b5 dcbe 3cbc bbbe 058d 76be a801 1a3e
00000090: 68cd 42be bad9 aebe 603e 69be f95a d8bd
000000a0: ffab c1be 591d d1be 159b 8f3d 6340 d13c
000000b0: aa18 e5bd 7a14 e7be c97f 9dbe 7004 edbe
000000c0: c6ac d8bd 55a1 80be 37ef adbe d5a4 b2bd
000000d0: 2d26 1dbe d2bf 06be 65f8 c0be 6953 c1bd
000000e0: e38a 3ebf 1961 a3bc 3dcc 10be 875d 7abe
000000f0: 734a bfbe 6b52 c4be 7b80 93be 86ba e4bd
00000100: 8d2a 41bd e880 e2be 656e 1f3e 6fba 67bd
00000110: 2ffe e7bd c65b 62bd 278f cc3e ddee 983e
00000120: 62e2 b83d ed44 4fbd 8bc1 593e 8979 7e3e
00000130: 4f5b 573e 5284 863d 7f7d 303f c9bd 45bc
00000140: 356c 833e e559 013f 14a7 33be 0b35 ba3d
00000150: 75c0 063f dfcb 6f3e 905e 953e 6a8a 033e
00000160: c589 1a3f 3d35 893e fd39 d63c da1d ae3e
00000170: 9ee1 403c 0a9c 2b3e 3cf9 e53e 4a94 133f
00000180: 83c8 323f 9843 903e 4615 703e b9e0 9839
00000190: 1a31 433d 6079 cd3e 7420 9cbb b644 5d3e
000001a0: c63f 143f 727d 0d3e 9a68 043f a213 753f
000001b0: 3cfb 383e 4318 a2be 95b8 39be 3c4e 083e
000001c0: 1d68 dd3d 9f01 1a3f e21d 263e c86c fb3d
000001d0: 5cc3 033e a5e6 5b3e fe50 093f 97f1 fb3d
000001e0: f335 293f edf2 d83d 0da6 ccbd 4060 a43e
000001f0: 5a75 323e d6fe 153e 011b 113e 43b3 3e3e
00000200: c004 343e 46a3 423e 61b1 9c3e b7b4 7f3e
00000210: d419 05be 3eac 243d 21e2 2c3e 7616 6c3b
00000220: 6e6c 2abe accf 883d c69d 61bd 8a66 213e
00000230: 4955 393e 1bd0 503e 6cd0 3cbe 7831 503d
00000240: a843 50be 84f3 b43e dbf0 c7bd 5c59 c3bd
00000250: 983c 1fbe f2c5 a0be 0678 f9bc 84d4 a93e
00000260: 7e21 293e ffeb eb3d ec3f 16bd 109f 143e
00000270: 2272 5bbd 2e23 14bd ad6c 923c 084b a2bd
00000280: 124f 92bd 2054 2ebd d266 553e 7a00 a3be
00000290: 002d 533e 23b5 1d3d f1b0 32be 28f1 bd3e
000002a0: 24e3 a2be 66b2 013e 84bb 8f3e c3fc f83e
000002b0: ea14 4f3d 5369 d53d 3068 593e 8166 41bb
000002c0: e173 debc f624 723e 0aab bbbe a0b5 773d
000002d0: 4694 a3bd eb57 4ebe b809 19be 8dfa dfbe
000002e0: 6de7 883d 981a 5abe 1df2 f53d 1091 6cbb
000002f0: 71b7 2b3e 82bb 663c c999 db3d 1f11 efbe
00000300: 7954 143f 5cae 3abe 36d7 c63d 160e 85bd
00000310: 4106 d3bd ff42 0f3e 6976 033e 58e7 b23d
00000320: 4b22 f13e bdd6 cebe 1b12 8e3d 662c 37be
00000330: 98bc 853c 2b26 0abe dbfb 223e f313 1abd
00000340: 7236 3e3d 7c0e 6d3d 62b7 c3bd 29fd b3be
00000350: 976e bc3d ac4b 8ebd 897c ae3d b0dc 223d
00000360: 27d7 893d fe51 0fbe 197f 983e c091 4dbd
00000370: d62d b23e 9a31 763e c061 92bb af6e eebc
00000380: bd44 07be ec45 6abe 1a9a b2bd 7689 d63e
00000390: 3510 093e 4e18 13be 4ce5 a5bd 8672 6b3e
000003a0: 494b 93bd 1d7c 893e a9af edbd 7a06 b63e
000003b0: 69ed 2a3e cb9d 05be 9b72 a13d a150 e03b
000003c0: d5e1 6fbd 4a54 b2be 417c f8bb 91f1 b1be
000003d0: fdb4 833e de18 1e3f f0e8 5c3e 3ab8 18be
000003e0: 211a 253d 6b54 82bd 0f80 89be 7688 843c
000003f0: 9d7a a5bd f79b 183e 52d8 383e 6d91 90be

lstm.bias_hh_l0 f4 [256]
0.032708526 -0.040394574 -0.2585925 -0.10187665 -0.1335855 -0.22870027 -0.20509437 -0.25978422
-0.15704744 -0.31284446 -0.104304984 -0.44676313 -0.21255125 -0.030176714 -0.4105563 -0.30820322
-0.23392859 0.020153005 -0.116410986 -0.067713656 -0.3339382 -0.26266453 -0.19885927 -0.06816221
-0.41138068 -0.17713313 -0.031024724 -0.22249229 -0.028798366 -0.14137821 -0.43515855 -0.5295272
-0.31941667 -0.36620355 -0.13218217 0.18847756 -0.29627883 -0.4102685 -0.13469231 -0.20711654
-0.30363363 -0.36742803 -0.01855025 -0.039125912 -0.23684552 -0.60535675 -0.30307075 -0.34933573
-0.08758369 -0.097157866 -0.32210058 -0.014683086 -0.08732832 -0.27055004 -0.48792243 -0.03621799
-0.76488316 0.043041877 -0.23820971 -0.22796051 -0.28802952 -0.29965904 -0.17490578 -0.19129413
0.073552415 -0.27598223 0.18047887 -0.03924657 0.040413912 -0.14403692 0.37451893 0.26987717
0.2195352 0.13671528 0.09391099 0.2527754 0.15099913 0.12457472 0.6695072 -0.1558013
0.2241911 0.42131925 -0.06402328 0.20609342 0.36200804 0.07505103 0.24199162 0.2114896
0.5612787 0.11885526 0.034537442 0.26978233 0.0023113522 0.059737 0.4403124 0.53715914
0.6564308 0.37549952 0.43618956 0.13493408 0.13931122 0.27792037 0.13457854 0.1543529
0.66873854 0.1743108 0.47100562 0.8539473 0.13220467 -0.3151849 -0.19942605 0.15048885
0.0374188 0.54013795 0.083304495 0.053696632 0.19879377 0.377503 0.50434077 0.25987363
0.64460886 0.06487169 0.107408464 0.2747878 0.022001263 0.31323954 0.2535658 0.074037746
0.026163023 -0.00021248434 0.12431421 0.27835968 -0.109231256 -0.055068664 0.2754417 -0.0038894466
-0.14925309 0.035966314 0.043170568 0.1474651 0.19206676 0.29395297 -0.059291143 0.09457994
-0.105775945 0.4148173 -0.13491726 0.063845634 -0.017958099 -0.18431951 -0.2081459 0.2094559
0.13594593 0.14145297 -0.12107761 0.15300791 -0.1512323 -0.076328754 -0.14687797 -0.0049072076
-0.14302775 -0.06660895 0.14263313 -0.2821844 0.34824222 0.24486378 -0.16254294 0.3285622
-0.21003552 0.25612804 0.19674286 0.40720326 -0.1384092 -0.024632731 0.17768258 0.13467719
-0.18711638 0.08007964 -0.42153582 0.08258803 -0.23187503 -0.17476851 -0.16710362 -0.3141026
-0.056451622 -0.054106288 0.19204755 -0.14880925 0.04322435 -0.008772457 0.014958474 -0.34817007
0.5911963 0.057213683 0.06355195 -0.0570534 -0.10971463 0.14140822 0.3115379 0.17325254
0.46914285 -0.26076597 -0.0424466 0.036538485 0.13732709 -0.240706 0.25012046 -0.071282126
0.18540022 -0.054055844 -0.15388116 -0.487018 0.09050757 -0.18781567 0.09896839 -0.13239492
-0.042410526 -0.10662724 0.23864132 -0.16776289 0.2119484 0.2936499 -0.02322025 0.056845427
-0.088482775 -0.20524572 -0.16159381 0.54026264 0.21173792 0.059663653 -0.16967165 0.25984037
-0.07527133 0.19387092 -0.13088953 0.12700771 0.21950155 -0.09711041 -0.12810871 0.01662428
-0.11950902 -0.30750418 0.071710534 -0.1500813 0.21468496 0.57381815 0.22361931 -0.17916113
-0.056526292 -0.057793695 -0.27910042 0.07935096 -0.17883548 0.18269372 0.35136035 -0.30162424
00000000: 60f9 053d c874 25bd 3c66 84be b4a4 d0bd
00000010: a3ca 08be 6730 6abe 4204 52be 7002 85be
00000020: 0bd1 20be 262d a0be da9d d5bd 23be e4be
00000030: 09a7 59be 2835 f7bc 6f34 d2be d0cc 9dbe
00000040: fa8a 6fbe ea17 a53c e268 eebd 75ad 8abd
00000050: f3f9 aabe f77b 86be c4a1 4bbe a198 8bbd
00000060: 7da0 d2be 6362 35be 9027 febc 05d5 63be
00000070: 8dea ebbc 73c5 10be 1acd debe 188f 07bf
00000080: 958a a3be 087f bbbe c35a 07be 4300 413e
00000090: dcb1 97be b60e d2be c8ec 09be 5c16 54be
000000a0: de75 9bbe 871f bcbe b2f6 97bc 7e42 20bd
000000b0: a287 72be a9f8 1abf 172c 9bbe 22dc b2be
000000c0: 145f b3bd b4fa c6bd 5eea a4be 5491 70bc
000000d0: 31d9 b2bd 8985 8abe f8d0 f9be 5159 14bd
000000e0: 62cf 43bf ae4c 303d 3fed 73be 7b6e 69be
000000f0: 9b78 93be e96c 99be 801a 33be 9ce2 43be
00000100: a6a2 963d 8b4d 8dbe 74cf 383e 03c1 20bd
00000110: 0f89 253d 6a7e 13be f2c0 bf3e 572d 8a3e
00000120: d6cd 603e 17ff 0b3e 6854 c03d c76b 813e
00000130: 849f 1a3e 0821 ff3d d364 2b3f 608a 1fbe
00000140: 5a92 653e 28b7 d73e a31e 83bd 270a 533e
00000150: 1e59 b93e 5bb4 993d a7cc 773e bb90 583e
00000160: f6af 0f3f 636a f33d 2277 0d3d e920 8a3e
00000170: 0e7a 173b c9ae 743d a070 e13e 4383 093f
00000180: d90b 283f 7941 c03e 3d54 df3e 292c 0a3e
00000190: 9aa7 0e3e 944b 8e3e f5ce 093e b00e 1e3e
000001a0: 7332 2b3f 887e 323e a627 f13e 4a9c 5a3f
000001b0: a960 073e ea5f a1be 5836 4cbe c019 1a3e
000001c0: 7544 193d 7b46 0a3f 8c9b aa3d 00f1 5b3d
000001d0: 9890 4b3e 1348 c13e 7a1c 013f 280e 853e
000001e0: 1605 253f 73db 843d f8f8 db3d fdb0 8c3e
000001f0: fe3b b43c ef60 a03e 60d3 813e 1aa1 973d
00000200: d653 d63c 55ce 5eb9 7398 fe3d 2985 8e3e
00000210: a3b4 dfbd ae8f 61bd b206 8d3e 16e6 7ebb
00000220: cdd5 18be 6a51 133d 9fd3 303d 1701 173e
00000230: 26ad 443e 0181 963e 45db 72bd 21b3 c13d
00000240: 0fa1 d8bd ef62 d43e c027 0abe 80c1 823d
00000250: dd1c 93bc 41be 3cbe 3324 55be 9c7b 563e
00000260: 6935 0b3e 0cd9 103e 8af7 f7bd 1bae 1c3e
00000270: a4dc 1abe 4052 9cbd 2e67 16be a4cc a0bb
00000280: de75 12be 466a 88bd 6b0e 123e 797a 90be
00000290: ce4c b23e 92bd 7a3e a871 26be 4e39 a83e
000002a0: 8d13 57be 3723 833e f676 493e f27c d03e
000002b0: 24bb 0dbe 95ca c9bc 6cf2 353e d1e8 093e
000002c0: 709b 3fbe cb00 a43d 8bd3 d7be ea23 a93d
000002d0: a670 6dbe 84f6 32be 361d 2bbe 0ed2 a0be
000002e0: d139 67bd 8e9e 5dbd 1da8 443e 7461 18be
000002f0: 040c 313d 5aba 0fbc 6314 753c 5943 b2be
00000300: a458 173f e558 6a3d 8627 823d d3b0 69bd
00000310: 10b2 e0bd 51cd 103e e581 9f3e 1d69 313e
00000320: 7e33 f03e 1e83 85be 7cdc 2dbd 61a9 153d
00000330: 799f 0c3e a27b 76be ca0f 803e 5dfc 91bd
00000340: 8ed9 3d3e a969 5dbd 0693 1dbe 6c5a f9be
00000350: 085c b93d c052 40be f0af ca3d 8992 07be
00000360: a9b6 2dbd 625f dabd 645e 743e 09ca 2bbe
00000370: 0009 593e 4859 963e 6538 bebc c0d6 683d
00000380: 7536 b5bd ef2b 52be d978 25be a74e 0a3f
00000390: d3d1 583e e061 743d 68be 2dbe cc09 853e
000003a0: db27 9abd 1986 463e e807 06be 4f0e 023e
000003b0: 04c5 603e d3e1 c6bd ee2e 03be a42f 883c
000003c0: 25c1 f4bd 3071 9dbe f9dc 923d eaae 19be
000003d0: 60d6 5b3e bfe5 123f 76fc 643e 0476 37be
000003e0: 1d88 67bd 15b9 6cbd 40e6 8ebe c282 a23d
000003f0: a620 37be 1014 3b3e 81e5 b33e 7e6e 9abe

fc.weight f4 [50, 64]
-0.27237886 0.12103986 -0.32648888 0.14037582 -0.16063535 0.39353973 -0.12462118 -0.110816404
0.08237304 -0.16268605 -0.6155136 -0.28307036 0.0908805 0.08793535 -0.191182 0.06876115
0.045249183 0.14938883 0.24044348 -0.08649037 0.19241914 0.4190855 -0.1789894 -0.12413299
-0.015644806 -0.10170961 0.32393774 -0.008663293 0.25723377 -0.23032096 -0.5547225 0.16835006
-0.02092634 0.3534835 -0.02224788 0.29220015 0.11926042 -0.029497549 -0.14837494 0.3620572
-0.104709856 -0.17345543 0.0044323686 0.041720662 -0.1404163 -0.010977927 -0.098022684 -0.16404943
-0.34111223 0.14351602 0.018461423 -0.11588981 -0.0067447023 0.4062166 -0.16803528 0.17809682
0.13907179 -0.032806594 -0.33871046 -0.07714862 0.54213613 0.023680666 -0.0071440577 -0.15852669
-0.28948036 0.18096091 -0.6693615 0.018734781 -0.009415422 0.20472074 -0.1662697 0.027540913
-0.09869627 -0.032581147 -0.19604468 0.17299008 -0.10067955 0.074210346 -0.10300629 0.19409159
0.042382464 0.08708709 -0.14581862 -0.2912697 0.20352502 0.40948415 -0.24697448 -0.20483787
0.08019627 -0.064334266 0.42783028 -0.121162534 0.18532191 -0.44755164 -0.305889 0.2213155
0.08264561 0.14094613 0.12985843 0.5232099 0.32997566 -0.25378487 0.0034010557 0.3345625
-0.12779476 -0.23215158 -0.26146516 0.06452518 -0.14505225 0.092960484 0.14834173 -0.1978074
-0.24878629 0.2087426 -0.11895096 0.115585536 -0.069428615 0.32744986 -0.1461211 0.18526393
0.061233513 -0.05335807 -0.009192829 0.0031837209 0.1068244 0.052760962 0.0066369204 -0.13578448
-0.30409533 0.71896636 -0.49367514 -0.54237276 -0.9726977 0.20594238 -0.0009323818 -0.01985121
-0.31439528 -0.2805204 0.22482283 -0.2922405 -0.026224727 -0.20562187 0.26185727 -0.21594563
0.020791708 -0.034108713 0.2559032 -0.3443357 0.2455378 0.18857598 0.05152567 -0.5543979
0.31555918 0.33621192 0.5451812 -0.33672297 -0.15282384 -0.09149521 -0.25373045 -0.037798338
0.12507641 0.703739 -0.12419031 0.38891822 -0.3385565 0.34783977 0.06197957 0.07583926
-0.15516926 0.11499228 -0.24375387 -0.1621529 0.0127874045 -0.20014514 -0.56655407 -0.20761998
0.25999606 -0.04269686 0.039623287 -0.39211047 0.034356765 0.5249126 -0.1505459 -0.14002286
-0.005773303 0.34592476 0.009214905 -0.12127101 0.46237835 -0.20350458 -0.48922777 0.06772938
-0.59210664 0.5735384 -0.55710965 -0.38280782 -0.93809843 0.10082729 -0.05774172 -0.020113612
0.07962996 -0.9859416 0.13854603 -0.483389 0.064502455 -0.7511893 0.05545959 -0.0037589453
0.038225643 -0.13985547 0.16108358 -0.5065981 0.025882134 0.12772124 0.03603369 -0.3903197
0.24209882 0.279288 0.68152577 0.14102142 -0.358788 -0.33462352 -0.04255277 -0.1220379
0.2381407 0.81758773 0.056600187 0.30714372 -0.62478733 -0.1595628 -0.014209891 0.09286232
-0.12425627 0.13588014 -0.4365756 -0.41086242 -0.015916316 -0.02274039 -0.24908702 -0.5413548
0.12547167 -0.27340847 -0.15346275 -0.58035415 0.23145264 0.3623365 -0.13995086 0.11771754
-0.34692127 0.23490725 -0.011099333 -0.35331768 0.5461371 -0.101420425 -0.342265 0.1721617
00000000: 3e75 8bbe bfe3 f73d 8d29 a7be aebe 0f3e
00000010: 987d 24be 0a7e c93e 6439 ffbd b6f3 e2bd
00000020: 32b3 a83d 2c97 26be 4d92 1dbf 99ee 90be
00000030: 8e1f ba3d 7317 b43d 37c5 43be a5d2 8c3d
00000040: 3557 393d 63f9 183e d136 763e dd21 b1bd
00000050: 8609 453e 6092 d63e ff48 37be 7039 febd
00000060: 8929 80bc 214d d0bd 2bdb a53e 7cf0 0dbc
00000070: 25b4 833e 42d9 6bbe 4b02 0ebf f563 2c3e
00000080: b76d abbc cafb b43e 3041 b6bc 429b 953e
00000090: cf3e f43d d8a4 f1bc 9aef 17be 905f b93e
000000a0: 1f72 d6bd 4d9e 31be 673d 913b 49e3 2a3d
000000b0: 4ac9 0fbe c3dc 33bc 1ec0 c8bd 93fc 27be
000000c0: 43a6 aebe ddf5 123e 693c 973c a357 edbd
000000d0: aa02 ddbb 9ffb cf3e 7111 2cbe 035f 363e
000000e0: d668 0e3e 3560 06bd 756b adbe 1800 9ebd
000000f0: 6fc9 0a3f f5fd c13c b318 eabb d254 22be
00000100: c536 94be d14d 393e 465b 2bbf af79 993c
00000110: 2443 1abc 50a2 513e 9b42 2abe 7b9d e13c
00000120: 4521 cabd cf73 05bd f0bf 48be 5024 313e
00000130: 1431 cebd 98fb 973d f6f4 d2bd f2bf 463e
00000140: 3c99 2d3d b75a b23d 7a51 15be 4d21 95be
00000150: dd68 503e e8a7 d13e e1e6 7cbe 05c1 51be
00000160: f13d a43d afc1 83bd 920c db3e 1024 f8bd
00000170: 07c5 3d3e 7d25 e5be 7c9d 9cbe 88a0 623e
00000180: 1a42 a93d 2f54 103e 9cf9 043e 16f1 053f
00000190: 92f2 a83e 17f0 81be 3fe4 5e3b c74b ab3e
000001a0: a1dc 02be 25b9 6dbe c3de 85be c725 843d
000001b0: 9488 14be 1162 be3d e5e6 173e 068e 4abe
000001c0: d5c1 7ebe 9fc0 553e 909c f3bd 1cb8 ec3d
000001d0: 9730 8ebd 82a7 a73e c5a0 15be d4b5 3d3e
000001e0: fecf 7a3d fe8d 5abd 859d 16bc f9a5 503b
000001f0: c0c6 da3d e11b 583d 867a d93b 160b 0bbe
00000200: 62b2 9bbe 2e0e 383f fdc2 fcbe f1d8 0abf
00000210: b702 79bf 8fe2 523e 156b 74ba 019f a2bc
00000220: 6bf8 a0be 5fa0 8fbe f537 663e 8ca0 95be
00000230: 3dd5 d6bc 8a8e 52be 2812 863e da20 5dbe
00000240: 5f53 aa3c 94b5 0bbd bf05 833e c54c b0be
00000250: 436e 7b3e 101a 413e 950c 533d 05ed 0dbf
00000260: f990 a13e f823 ac3e ff90 0b3f f466 acbe
00000270: da7d 1cbe d761 bbbd f5e8 81be 6ed2 1abd
00000280: 0814 003e 3d28 343f 7d57 febd 4a20 c73e
00000290: 4757 adbe 0e18 b23e 4ade 7d3d 9d51 9b3d
000002a0: b1e4 1ebe 1381 eb3d 9d9a 79be 690b 26be
000002b0: 4382 513c d9f2 4cbe b009 11bf 559a 54be
000002c0: 341e 853e e7e2 2ebd 074c 223d b4c2 c8be
000002d0: aeb9 0c3d ac60 063f b428 1abe 2762 0fbe
000002e0: fa2d bdbb 0d1d b13e 1dfa 163c ef5c f8bd
000002f0: dbbc ec3e 8163 50be 107c fabe b4b5 8a3d
00000300: 4d94 17bf 6ad3 123f bd9e 0ebf 63ff c3be
00000310: 3827 70bf 8a7e ce3d 9582 6cbd 4dc5 a4bc
00000320: 0815 a33d ab66 7cbf 03df 0d3e c37e f7be
00000330: dd19 843d f14d 40bf 9829 633d a358 76bb
00000340: 7e92 1c3d 4636 0fbe 18f3 243e 6ab0 01bf
00000350: c506 d43c 5bc9 023e 1098 133d fcd7 c7be
00000360: c1e8 773e d6fe 8e3e 7978 2e3f eb67 103e
00000370: 10b3 b7be c653 abbe d04b 2ebd 02ef f9bd
00000380: 28db 733e 6e4d 513f 99d5 673d f141 9d3e
00000390: 10f2 1fbf 6e64 23be 9ad0 68bc 9a2e be3d
000003a0: 127a febd 2a24 0b3e d686 dfbe 8f5c d2be
000003b0: ef62 82bc 0e4a babc ab10 7fbe 3a96 0abf
000003c0: a57b 003e 32fc 8bbe 5725 1dbe 1792 14bf
000003d0: ec01 6d3e 2b84 b93e 474f 0fbe e515 f13d
000003e0: aa9f b1be 878b 703e fad9 35bc 0ee6 b4be
000003f0: a4cf 0b3f 83b5 cfbd 5c3d afbe 284b 303e

fc.bias f4 [50]
0.23161104 0.015584132 -0.17780426 -0.15128374 -0.2786099 0.06495898 0.062657095 -0.16696794
-0.12754165 -0.39727718 -0.48504698 -0.27277625 -0.52086264 -0.48841068 -0.38607648 -0.0049619935
-0.03741 0.16123244 0.26462197 0.05636705 0.21636114 -0.37878636 -0.3366936 -0.3284589
-0.2698843 -0.36211875 -1.8722544 0.15418443 0.059621185 -0.08976306 -0.19033542 -0.09119935
0.12022493 -0.053523634 0.066870496 -0.75514644 -0.5908274 -0.661454 -0.7575428 -1.0911347
-0.8199298 -0.57903874 -0.83935046 -0.17972021 -0.20452772 -1.553534 0.2975598 0.11820255
-0.22807138 -0.32217076
00000000: 722b 6d3e 9654 7f3c 5212 36be 20ea 1abe
00000010: f5a5 8ebe 3709 853d 5d52 803d a5f9 2abe
00000020: 479a 02be ea67 cbbe 1458 f8be 54a9 8bbe
00000030: 4157 05bf f710 fabe d1ab c5be 3898 a2bb
00000040: 3a3b 19bd 1e1a 253e 887c 873e 23e1 663d
00000050: c68d 5d3e 49f0 c1be 1b63 acbe c42b a8be
00000060: 462e 8abe a167 b9be 08a6 efbf 86e2 1d3e
00000070: 5835 743d b2d5 b7bd 4ae7 42be bac6 babd
00000080: 7d38 f63d 993b 5bbd 66f3 883d 4751 41bf
00000090: 7740 17bf 0d55 29bf 53ee 41bf 4daa 8bbf
000000a0: ebe6 51bf e23b 14bf acdf 56bf 9308 38be
000000b0: b76f 51be 34da c6bf c259 983e 2e14 f23d
000000c0: 8b8b 69be 91f3 a4be
